model/model.pth (torch, 17216 bytes, 4 tensors)

linear1.weight f4 [256, 11]
0	0x3e93c30c	0.28859746
1	0xbe82fdaf	-0.2558417
2	0x3cda29d4	0.026631273
3	0xbe48c1db	-0.196052
4	0xbe899ca6	-0.26877326
5	0x3d1a5d1f	0.037686463
6	0xbe9510f5	-0.291145
7	0xbe8e0ca1	-0.2774401
8	0x3e0f4603	0.13991551
9	0xbd5e5db9	-0.0542886
10	0x3e3e3b41	0.18577291
11	0x3e6c713f	0.23090075
12	0x3e562bb5	0.2091511
13	0xbdcbd043	-0.09951832
14	0x3e5e3349	0.21699251
15	0x3e7c93a7	0.246657
16	0xbddd6e39	-0.10812039
17	0x3e5636b2	0.20919302
18	0xbe24f90c	-0.16110629
19	0xbd616e46	-0.055036806
20	0x3e7f09ba	0.24906054
21	0xbe255608	-0.161461
22	0x3dcc0886	0.09962563
23	0xbd450370	-0.04809898
24	0x3e66a247	0.22522841
25	0x3e106a1b	0.14102976
26	0x3e6a7b4c	0.22898597
27	0x3e69471f	0.22781037
28	0x3e34e53d	0.17665572
29	0x3e87a370	0.2649188
30	0xbda1cb5a	-0.07900114
31	0xbd607e02	-0.05480767
32	0x3c868033	0.016418552
33	0xbd611d8a	-0.05495981
34	0x3d18b4b2	0.0372817
35	0xbe8db013	-0.27673396
36	0xbce8b03d	-0.02840435
37	0xbe16cab5	-0.14725764
38	0x3db05a50	0.08610976
39	0x3e18a24d	0.14905663
40	0x3d1de801	0.038551334
41	0xbe1e65ee	-0.1546857
42	0xbe854462	-0.26028734
43	0xbe519ee1	-0.20470764
44	0x3d4d22ef	0.050082143
45	0xbd8321c1	-0.064029224
46	0xbe672827	-0.2257391
47	0xbe7d0ceb	-0.24711959
48	0x3cf48814	0.029850043
49	0xbe6526e5	-0.22378118
50	0xbd1570d3	-0.03648455
51	0x3de57120	0.112032175
52	0xbca4621c	-0.020066313
53	0xbdbb8d47	-0.09157806
54	0xbe8021ec	-0.2502588
55	0x3d34befa	0.044127442
56	0x3e711749	0.23544039
57	0xbe821ccb	-0.25412592
58	0x3e4774b8	0.19478118
59	0xbaf58d19	-0.0018734067
60	0x3e051231	0.1299522
61	0xbc16f54f	-0.00921376
62	0xbe55b22d	-0.2086875
63	0x3e96daa2	0.2946368
64	0xbe0dfa1f	-0.13864945
65	0xbdd08c90	-0.1018306
66	0xbe1ec485	-0.15504654
67	0x3e858680	0.26079178
68	0xbe96ead7	-0.29476044
69	0x3e354027	0.17700253
70	0x3e47664f	0.19472621
71	0xbcee3c4d	-0.029081488
72	0x3e7b3a52	0.24533966
73	0x3d13e194	0.0361038
74	0xbe62524c	-0.22101706
75	0x3e1d5ac9	0.15366663
76	0xbd659b46	-0.056056283
77	0xbe825f55	-0.25463358
78	0x3e1a2cad	0.15056105
79	0xbe314f95	-0.17315514
80	0x3d28decf	0.04122811
81	0x3e88768b	0.2665294
82	0xbe703722	-0.23458531
83	0xbc849c66	-0.016187858
84	0x3e977b10	0.29586077
85	0xbe836f76	-0.25670975
86	0x3e000ebb	0.12505619
87	0xbe8d9be8	-0.2765801
88	0xbdbd0ea8	-0.09231311
89	0xbe48bb64	-0.19602734
90	0xbe8a3ddf	-0.2700033
91	0xbd94203c	-0.07232711
92	0xbe488a10	-0.19583917
93	0xbe956345	-0.291773
94	0xbad62046	-0.0016336523
95	0xbe9742a0	-0.29543018
96	0xbd6b507b	-0.0574498
97	0x3d4d155e	0.050069205
98	0x3d9f1710	0.07768071
99	0x3e64aa51	0.22330596
100	0x3e5b5de9	0.21422543
101	0xbe4bf170	-0.1991632
102	0xbe855801	-0.26043704
103	0xbe0c53dc	-0.13703865
104	0x3e5526c1	0.20815565
105	0xbd015a70	-0.03158039
106	0x3e9579aa	0.29194385
107	0xbd861d2a	-0.06548531
108	0xbd2929a4	-0.041299477
109	0x3d4b6871	0.04966015
110	0x3c0c04a0	0.008546025
111	0x3cf8d3b0	0.030374378
112	0x3e070d7a	0.13188735
113	0xbe42ddd8	-0.19029939
114	0xbe504aa2	-0.2034097
115	0xbd65cf64	-0.056105986
116	0xbe60ecb4	-0.21965295
117	0x3dba5e70	0.09100044
118	0xbe51e390	-0.20496964
119	0xbd408ac0	-0.047007322
120	0xbdc2fb6e	-0.09520613
121	0xbe1fa905	-0.1559182
122	0x3d2a3b84	0.041560665
123	0x3d725764	0.059165373
124	0xbe2b28b2	-0.16714743
125	0x3e90f58d	0.2831234
126	0x3cbb4f5e	0.022864994
127	0x3e793ed0	0.24340367
128	0x3d92db01	0.07170678
129	0xbe27fd10	-0.1640513
130	0xbe35a9b1	-0.17740513
131	0xbe9c3771	-0.30511048
132	0xbcb4992c	-0.022045694
133	0x3e738720	0.23782015
134	0x3d465143	0.04841734
135	0x3e98dac3	0.29854402
136	0x3e832d0b	0.25620303
137	0x3e5a412a	0.2131392
138	0xbe142f13	-0.14471082
139	0xbe8240c8	-0.2544005
140	0x3dfa2d5a	0.122156814
141	0xbea44c6c	-0.32089555
142	0x3d6c2365	0.057650942
143	0x3d2b58fa	0.0418329
144	0xbde6f334	-0.11276856
145	0xbe1a8b4c	-0.150922
146	0x3e31ebe4	0.17375141
147	0xbdac03f4	-0.083991915
148	0xbe581476	-0.21101555
149	0x3e8f397a	0.2797354
150	0x3db6e203	0.08929827
151	0x3c66a83b	0.014078195
152	0xbe771d73	-0.24132328
153	0x3db95f87	0.090514235
154	0xbe46eaa2	-0.19425443
155	0xbe880615	-0.2656714
156	0x3e578cbf	0.21049784
157	0x3df96955	0.121782936
158	0x3e2b18ec	0.16708726
159	0x3e05409a	0.13012925
160	0x3e058d39	0.13042153
161	0xbc38ddbb	-0.011283333
162	0x3deb14ab	0.114785515
163	0x3dcdcbb2	0.100486174
164	0x3e23f185	0.16010101
165	0x3e751236	0.23932728
166	0x3e8d68e4	0.27619088
167	0xbc3975c7	-0.011319584
168	0xbc754fab	-0.014972608
169	0x3e07929e	0.13239524
170	0x3e80f92b	0.251901
171	0xbd44443b	-0.047916632
172	0x3e2858de	0.1644015
173	0xbe54f499	-0.20796432
174	0xbe070ad8	-0.1318773
175	0x3e7d1171	0.24713685
176	0xbc8233a7	-0.01589377
177	0x3d3565fd	0.044286717
178	0x3e42ec4e	0.19035456
179	0xbe2c730b	-0.1684076
180	0x3e09362e	0.13399574
181	0x3d4f40c3	0.05059887
182	0x3ded982a	0.116012886
183	0xbe888273	-0.26662025
184	0xbe4b1552	-0.19832352
185	0x3e5d36a8	0.21602881
186	0xbe182ec4	-0.1486159
187	0x3d93d1cc	0.0721775
188	0xbe776fff	-0.24163817
189	0x3e79776f	0.24361967
190	0xbd335e75	-0.043791253
191	0xbd57549c	-0.052570924
192	0x3e3ce2f9	0.18445958
193	0x3df57c84	0.1198664
194	0x3dd879fa	0.1057014
195	0xbc48e72a	-0.012262145
196	0x3e8a0864	0.26959527
197	0x3e6739b2	0.22580603
198	0xbd38ac68	-0.045086294
199	0xbcf4aebb	-0.029868474
200	0xbe96238d	-0.29323998
201	0x3d6c83ee	0.057743005
202	0x3dd07a92	0.101796284
203	0xbe0ac823	-0.13552909
204	0x3e32f173	0.17474918
205	0x3e8a2246	0.26979274
206	0xbdba4192	-0.09094538
207	0xbda6d83e	-0.08146714
208	0xbe7a98f7	-0.24472414
209	0x3e876435	0.2644364
210	0xbd214656	-0.03937372
211	0x3e9a02f1	0.3008037
212	0x3cc07d4c	0.023497246
213	0xbe5145f4	-0.20436841
214	0x3e60df87	0.21960269
215	0xbe4f8015	-0.20263703
216	0xbb3e3d0e	-0.002902809
217	0x3e589890	0.21151948
218	0x3da88b75	0.08229724
219	0xbdf2e79a	-0.11860581
220	0x3d3fdedd	0.0468434
221	0xbe93ba91	-0.28853276
222	0x3e8edea5	0.2790424
223	0x3e740ca8	0.23832953
224	0xbdfd31b8	-0.12362999
225	0xbd54af30	-0.051924884
226	0xbcfbeb40	-0.030751824
227	0xbe423969	-0.18967213
228	0xbe5039bf	-0.20334528
229	0xbe88203e	-0.265871
230	0x3e0e9a17	0.13925968
231	0xbe953d0b	-0.29148135
232	0xbdb44ed4	-0.08804098
233	0xbe8db2ac	-0.27675378
234	0xbe327b1d	-0.17429776
235	0xbc014292	-0.007889407
236	0xbdf659bc	-0.12028834
237	0xbe87fd70	-0.26560545
238	0x3cf86d70	0.030325621
239	0x3e637e9b	0.22216265
240	0xbe0d5fa2	-0.13806012
241	0xbdcc0358	-0.09961575
242	0xbe47dd98	-0.19518125
243	0xbe344382	-0.17603877
244	0x3e955f21	0.2917414
245	0x3db5f32b	0.08884271
246	0xbbf9a52c	-0.007618567
247	0x3e800303	0.25002298
248	0x3e74aca3	0.2389398
249	0x3d6af865	0.057365794
250	0x3dc8d3e2	0.098060384
251	0x3cc1c714	0.023654498
252	0xbdcb2b29	-0.099203415
253	0x3e8c53c3	0.27407655
254	0x3dfcf765	0.12351874
255	0xbe17e57c	-0.14833635

linear1.bias f4 [256]
0	0x3dda59a4	0.10661629
1	0x3dd752df	0.10513853
2	0x3db24312	0.08704199
3	0x3e90d452	0.28286988
4	0x3dc6915b	0.09695693
5	0xbe24ea72	-0.16105059
6	0xbe57afc5	-0.21063145
7	0x3d0f5a45	0.034998197
8	0xbcb8dbe4	-0.02256579
9	0xbda7b7d1	-0.08189357
10	0xbe57b326	-0.21064433
11	0x3d2da91d	0.042397607
12	0xbddaeea2	-0.10690047
13	0xbd9851cb	-0.07437476
14	0xbe2070da	-0.1566805
15	0x3e8ea01e	0.27856535
16	0x3e507fd1	0.20361258
17	0xbe2365fa	-0.1595687
18	0xbe646fb9	-0.22308244
19	0x3e9524c4	0.29129612
20	0x3e0f90dc	0.14020103
21	0xbe1c8049	-0.15283312
22	0x3cdaf1b7	0.026726587
23	0x3d17e255	0.03708108
24	0x3e91eddf	0.28501794
25	0xbe7541bc	-0.23950857
26	0xbe9b79a4	-0.30366242
27	0xbe86e240	-0.2634449
28	0x3e54164d	0.20711632
29	0xbe30a43e	-0.17250153
30	0x3e258a9c	0.16166157
31	0x3e76e7cb	0.2411186
32	0xbe0df354	-0.13862354
33	0x3e30e972	0.17276552
34	0x3df7ca18	0.12099093
35	0x3e8d9991	0.27656224
36	0xbe22c538	-0.15895545
37	0xbe37c572	-0.17946413
38	0xbdd575fc	-0.10422894
39	0xbe6c2142	-0.23059562
40	0x3ce78cf4	0.028265454
41	0xbe1fe495	-0.15614541
42	0xbe4bd8b9	-0.19906892
43	0xbe564ece	-0.20928499
44	0xbe4d7d26	-0.20067272
45	0xbd126e6f	-0.03574985
46	0x3e54fc8d	0.20799465
47	0xbe62cc2d	-0.221482
48	0xbd7a800e	-0.06115728
49	0x3d4cd2a1	0.05000556
50	0x3e3d5655	0.18489964
51	0xbd9d93f4	-0.076942354
52	0xbe70ae0d	-0.23503895
53	0x3d832ab5	0.0640463
54	0xbe972ece	-0.29527897
55	0xbe72aa89	-0.23697866
56	0xbe490aa0	-0.1963296
57	0xbe452eef	-0.19256185
58	0x3e07d287	0.13263904
59	0x3e9740d8	0.2954166
60	0x3e916300	0.28395844
61	0xbc2cc7d9	-0.010545694
62	0x3d649e5c	0.055815086
63	0xbce53f30	-0.027984232
64	0xbde39bd3	-0.111137055
65	0xbe6806f8	-0.22658908
66	0xbdff6fa6	-0.12472467
67	0xbe663d49	-0.22484316
68	0xbd9dc425	-0.07703427
69	0xbea5541b	-0.3229073
70	0x3e97c937	0.29645702
71	0xbe3d05eb	-0.18459289
72	0xbe43a0cb	-0.19104306
73	0x3e9385fb	0.28813156
74	0x3e421618	0.1895374
75	0xbe21f44d	-0.1581585
76	0xbe4af2cb	-0.1981918
77	0x3e14992c	0.14511555
78	0xbe61e0b5	-0.22058375
79	0xbdcb56a0	-0.09928632
80	0x3d845712	0.0646192
81	0x3d9766d3	0.07392659
82	0x3d259a41	0.04043031
83	0x3dbc0698	0.09180945
84	0x3e6fe146	0.23425779
85	0xbe865757	-0.2623851
86	0xbc6d839e	-0.014496712
87	0xbcd2e222	-0.025742594
88	0x3ea91a9c	0.33028114
89	0x3ddfbcb9	0.10924668
90	0x3cfc467a	0.030795325
91	0xbe663484	-0.2248097
92	0x3de6d88e	0.11271773
93	0xbdd1e847	-0.102493815
94	0xbdd544ff	-0.104135506
95	0x3da45217	0.0802347
96	0x3e83a008	0.25708032
97	0xbe1cb140	-0.1530199
98	0x3e8dd21c	0.27699363
99	0x3d399a23	0.04531301
100	0x3e2e6c56	0.17033514
101	0xbb2d8bae	-0.002648096
102	0xbd05ceca	-0.032667913
103	0xbe42be06	-0.190178
104	0xbc0b0ec3	-0.008487406
105	0xbe6517d1	-0.22372366
106	0x3c735ff2	0.014854418
107	0x3e4659c8	0.19370186
108	0xbd848bd4	-0.064719826
109	0xbe67e842	-0.22647193
110	0xbe690b99	-0.2275833
111	0x3e039a86	0.12851915
112	0x3c93b93b	0.01803266
113	0x3e1b74cb	0.15181272
114	0xbe13359a	-0.14375916
115	0xbcc43db1	-0.023955198
116	0xbe9d464a	-0.3071769
117	0x3d975292	0.07388796
118	0x3dad755e	0.08469652
119	0xbe94938a	-0.29018813
120	0x3e4c095c	0.19925445
121	0xbdde074b	-0.10841235
122	0x3e0dd7d7	0.13851868
123	0x3e722abb	0.23649113
124	0x3e991830	0.29901266
125	0x3d9badcb	0.07601508
126	0x3e2d62f5	0.1693228
127	0x3d2a6650	0.04160148
128	0x3d25e5a2	0.040502198
129	0x3e4018dd	0.18759485
130	0xbd0638f4	-0.03276916
131	0x3df06ada	0.1173913
132	0x3d0397bd	0.03212713
133	0x3d498420	0.04919827
134	0xbe13c01e	-0.14428756
135	0xbe15308d	-0.14569302
136	0xbd94023b	-0.07226988
137	0xbe8d5f72	-0.27611881
138	0x3dc19393	0.09451976
139	0xbe495021	-0.19659473
140	0xbd9594ea	-0.07303794
141	0x3e328193	0.17432241
142	0xbbe11342	-0.006868751
143	0xbe44a40c	-0.19203204
144	0xbe885edb	-0.2663487
145	0x3cc70a07	0.024296774
146	0xbc666494	-0.014062066
147	0x3d343528	0.043996006
148	0xbe057f88	-0.1303693
149	0x3e411374	0.18855077
150	0x3e8cfbf1	0.27535966
151	0x3d3b02c5	0.045656938
152	0xbe5ff46b	-0.21870582
153	0xbe8dabbd	-0.27670088
154	0x3df08ce5	0.117456235
155	0x3dfc0b09	0.12306792
156	0xbe844322	-0.25832468
157	0xbe7283e1	-0.2368312
158	0x3e23bb81	0.15989496
159	0x3df1e356	0.11810939
160	0xbdde55b0	-0.10856187
161	0x3e355e37	0.17711721
162	0x3d064094	0.03277643
163	0x3e6445ce	0.22292253
164	0x3e967cd3	0.29392108
165	0x3e84173d	0.2579898
166	0xbe861286	-0.26186007
167	0x3e41f89b	0.18942492
168	0x3d032a04	0.03202249
169	0x3d909c0c	0.070610136
170	0x3e8d210d	0.27564278
171	0xbe8c0289	-0.27345684
172	0xbe8ee376	-0.27907914
173	0x3dac1369	0.0840214
174	0xbdaf6e7e	-0.085659966
175	0xbe400a40	-0.1875391
176	0x3e627fab	0.22119014
177	0x3e0ec89c	0.13943714
178	0x3dbc5759	0.09196348
179	0xbcf6aae7	-0.03011079
180	0x3e8a5a63	0.27022085
181	0xbe01dc3a	-0.12681666
182	0xbe6f8ff9	-0.23394765
183	0xbe2d95e4	-0.1695171
184	0x3e218141	0.15771963
185	0x3e6a548e	0.22883818
186	0x3e41a67e	0.18911168
187	0x3e0e2eb4	0.13885003
188	0x3e4efdc1	0.20213987
189	0x3e814bfb	0.2525328
190	0xbe105984	-0.14096648
191	0xbd3053bb	-0.0430486
192	0xbe4b52f7	-0.19855867
193	0xbc9be9f0	-0.019032449
194	0x3dac4652	0.0841185
195	0x3e2f5c98	0.17125165
196	0xbe6be57f	-0.23036765
197	0xbe2c65e3	-0.16835742
198	0x3e673da1	0.22582103
199	0xbe24a308	-0.16077816
200	0x3e6ab017	0.22918735
201	0xbe3cad58	-0.184255
202	0x3e377261	0.17914726
203	0xbe134eb4	-0.14385492
204	0x3e717d93	0.23583059
205	0xbe85341c	-0.2601632
206	0xbe7ee2f1	-0.24891259
207	0x3e77c103	0.24194722
208	0x3e995279	0.29945734
209	0xbdf80738	-0.12110752
210	0x3e249ace	0.16074678
211	0xbd38b9cd	-0.04509907
212	0x3d85c130	0.06530988
213	0xbe1d060a	-0.15334335
214	0xbe225bb9	-0.15855302
215	0x3e7ecd6b	0.24883048
216	0x3e4759f2	0.19467905
217	0xbe0a97ef	-0.1353452
218	0x3dce61a5	0.10077218
219	0xbe80a554	-0.25126135
220	0xbdd01425	-0.10160092
221	0x3e6bf268	0.2304169
222	0x3e614ded	0.22002383
223	0xbdefea46	-0.11714606
224	0xbe11b1e7	-0.1422802
225	0x3e8d2507	0.27567312
226	0xbe264877	-0.1623858
227	0x3e8eae11	0.27867177
228	0x3dee7013	0.1164247
229	0x3d228b22	0.03968347
230	0xbe32867c	-0.17434114
231	0x3e713601	0.23555757
232	0x3dd7b6d0	0.105329156
233	0xbe600d77	-0.21880136
234	0xbb6f43b3	-0.0036508858
235	0xbe51a7a3	-0.20474105
236	0x3d97a1a1	0.07403875
237	0x3e7493bc	0.23884481
238	0xbe5ff4b4	-0.2187069
239	0x3d9408d6	0.07228248
240	0x3d3213b4	0.04347582
241	0x3c9fd175	0.019509057
242	0x3e8d44ce	0.27591556
243	0xbe88f3d4	-0.26748526
244	0xbc09c71b	-0.008409287
245	0x3e224b68	0.15849078
246	0x3e7f512e	0.24933311
247	0xbdb253f9	-0.08707423
248	0xbe2f87d2	-0.17141655
249	0x3d4ffb1e	0.050776593
250	0xbdfeb845	-0.124374904
251	0x3d175f0b	0.036955874
252	0x3e77c74e	0.24197122
253	0xbc9e6156	-0.019333523
254	0x3d0375f8	0.032094926
255	0x3d3d7f56	0.046264015

linear2.weight f4 [3, 256]
0	0xbd43adc4	-0.047773138
1	0xbbfa4c26	-0.007638472
2	0x3ca7a9ce	0.020466711
3	0xbdb2222d	-0.08697925
4	0x3c5a838e	0.013337029
5	0x3d3fd690	0.046835482
6	0xbc4bda1f	-0.012442141
7	0xbd1d1e20	-0.038358808
8	0xbcfb9051	-0.030708464
9	0xbd622234	-0.0552084
10	0x3d4d6854	0.050148323
11	0xbcfd732f	-0.030938713
12	0x3c955cfe	0.018232819
13	0xbd4d8e3e	-0.05018448
14	0xbc5a9bd2	-0.0133428145
15	0xbd288202	-0.04113961
16	0x3bf203c8	0.0073857047
17	0xbd89be34	-0.067257315
18	0xbcc32973	-0.023823475
19	0xbd8d22ba	-0.06891389
20	0x3d6982a0	0.05700934
21	0xbcb6a27c	-0.022294275
22	0x3cd065a7	0.025439097
23	0x3d4ae73b	0.049536925
24	0xbd2e7f89	-0.042602096
25	0xbce0f240	-0.027459264
26	0x3804a5aa	3.162554e-05
27	0xbd284d24	-0.041089192
28	0xbcc7f472	-0.024408553
29	0x3d41b0db	0.047287803
30	0xbce7e6d2	-0.028308306
31	0x3d02b30f	0.031909045
32	0x3d07f557	0.03319296
33	0xbd7d3139	-0.06181452
34	0xbb8c415f	-0.004280254
35	0x3af4e369	0.0018683496
36	0xbc0e2230	-0.008675143
37	0x3d223949	0.039605413
38	0xbc73d350	-0.014881924
39	0x3c904cfc	0.017614834
40	0x3cc2da2e	0.023785677
41	0x3b82d98b	0.0039932183
42	0x3cb09a28	0.021557882
43	0x3cb281cd	0.02179041
44	0xbcb500d2	-0.022095118
45	0xbcd0c54a	-0.0254847
46	0xba86a9f4	-0.0010274039
47	0x3cbc77af	0.023006288
48	0x3ce001a2	0.027344529
49	0xbd074f62	-0.03303469
50	0xbd568947	-0.05237701
51	0xbbe58a0f	-0.0070049833
52	0xbc76a350	-0.015053585
53	0xbce43d14	-0.027861156
54	0x3c55a6e2	0.013040276
55	0xbd1d6914	-0.03843029
56	0xbc67dfc3	-0.01415247
57	0xbcf32e9c	-0.029685311
58	0x3b1e9427	0.0024197192
59	0xbd7b7e64	-0.061399832
60	0x3c526a56	0.012842735
61	0xbd1a090b	-0.03760628
62	0xbd436ca1	-0.04771102
63	0xbc6544d9	-0.013993465
64	0xbba5bb36	-0.0050577177
65	0x3d59b666	0.053152464
66	0x3d4c0968	0.049813658
67	0xbd0cb03a	-0.03434775
68	0xbd4362f7	-0.047701802
69	0xbc36ed1d	-0.011164931
70	0xbcd341ae	-0.025788154
71	0xbd002e68	-0.031294256
72	0x3d19fd4c	0.03759508
73	0xbd91abb0	-0.07112825
74	0x3ca78e36	0.020453554
75	0xbcdc6c56	-0.026907127
76	0xbd3cd86a	-0.046104826
77	0x3b9d7ee2	0.0048063854
78	0x3c092a4b	0.0083719
79	0xbb1ac20b	-0.0023614194
80	0xbd7425d0	-0.059606373
81	0x3d042bfc	0.03226851
82	0x3cade78b	0.021228572
83	0x3d42d548	0.047566682
84	0xbcff6998	-0.03117828
85	0xbd63d8e9	-0.055626784
86	0xbd6daa98	-0.05802402
87	0x3d125d01	0.035733227
88	0xbd8e68cd	-0.06953583
89	0xbcd76a3f	-0.02629578
90	0xbd1ca0fb	-0.03823946
91	0x3d3bf9e1	0.0458926
92	0xbd7ae822	-0.061256535
93	0xbcce92cf	-0.025216488
94	0x391cd97e	0.00014958341
95	0xbd1a22ce	-0.03763085
96	0x3a062492	0.0005117144
97	0x3d2577d4	0.04039748
98	0xbd8425e7	-0.06452542
99	0x3ca2d6a9	0.019877749
100	0x3b79c472	0.0038111475
101	0x3ce4d3d7	0.027933044
102	0x3ce98efc	0.028510563
103	0xbd82ac94	-0.06380573
104	0xbcd2f0ff	-0.025749682
105	0xbd0007e4	-0.031257525
106	0xbd0bf7be	-0.034171812
107	0xbb8e9ffa	-0.004352567
108	0xbd777a9f	-0.060419675
109	0x3d891e56	0.06695239
110	0xbd9e9d81	-0.07744885
111	0x3ca5de7f	0.020247696
112	0xbba644ad	-0.0050741048
113	0xbd2deaca	-0.04246024
114	0xbca485e8	-0.020083383
115	0x3c593bca	0.013258884
116	0xbca794da	-0.02045672
117	0xbd66a8df	-0.05631339
118	0x3cf79be1	0.030225696
119	0xbcf47881	-0.029842617
120	0xbd547f98	-0.051879495
121	0x3c9940c8	0.018707648
122	0x3b746df9	0.0037296994
123	0xbd4bab32	-0.04972381
124	0xbcdd5c18	-0.027021453
125	0x3c6c7a6a	0.014433483
126	0xbcbf4dc8	-0.023352519
127	0xbd5d4304	-0.05401899
128	0x3cf33201	0.02968693
129	0x3cd12660	0.025530994
130	0xbd85e7fb	-0.065383874
131	0xbc3b0f5d	-0.011417237
132	0xbb9123bd	-0.004429309
133	0x3bd047aa	0.0063561993
134	0xbd8e1233	-0.06937065
135	0x3aa137a9	0.0012299913
136	0x3c415b50	0.011801556
137	0xbbdcefc0	-0.0067424476
138	0x3a909b90	0.0011032689
139	0x3c579f80	0.013160586
140	0xbd850da6	-0.06496744
141	0xbd4d173a	-0.05007098
142	0xbcd0212e	-0.025406446
143	0xbd2eb2a2	-0.042650826
144	0xbc165018	-0.009174369
145	0xbd406d94	-0.0469795
146	0x3cd23283	0.025658851
147	0x3caebfcd	0.021331692
148	0xbc94b167	-0.018150998
149	0x3d3a62a5	0.04550423
150	0xbc13227d	-0.008980391
151	0xbd50e9a3	-0.051004063
152	0xbb86c970	-0.0041133687
153	0x3ce99806	0.028514873
154	0xbd45a3d1	-0.04825193
155	0xbd4bb2bc	-0.049731
156	0xbcd08fda	-0.025459219
157	0xbc42399b	-0.0118545545
158	0xbd51035a	-0.051028587
159	0x3cc4d758	0.024028465
160	0xbc1a350a	-0.00941206
161	0x3c7749c9	0.015093275
162	0xbd24c0dc	-0.040222988
163	0xbd15d665	-0.036581416
164	0xbd295f30	-0.041350543
165	0x3cd6605d	0.026168996
166	0xbc0a2c31	-0.008433388
167	0xbc6ffcf6	-0.014647713
168	0x3cb321a8	0.021866634
169	0xbd98dba7	-0.0746377
170	0xbdb395e5	-0.087688245
171	0x3c8322a4	0.016007729
172	0xbcd9a040	-0.026565671
173	0x3bbf173b	0.0058316267
174	0xbd06a6fc	-0.032874092
175	0x3a48d53a	0.0007661168
176	0x3bc5b157	0.0060331034
177	0xbd34f1ce	-0.044175915
178	0x3d0aa392	0.0338474
179	0xbca9bd26	-0.020720076
180	0xbd20a71e	-0.039221875
181	0xbcecefbd	-0.02892291
182	0x3cb5c48f	0.022188453
183	0xbc5a5dd4	-0.013328034
184	0x3ca6f0c4	0.020378478
185	0x3cb0f486	0.021600973
186	0xbbc91f20	-0.0061377436
187	0xbd4381a9	-0.047731075
188	0xbda534b6	-0.080666944
189	0x3cd015c7	0.02540101
190	0x3a68e069	0.00088835374
191	0xbcacaabc	-0.021077506
192	0x3cf31c68	0.029676631
193	0xbd28debf	-0.041228052
194	0x3c4e107b	0.012577171
195	0xbc5861b8	-0.013206892
196	0xbcb09a6d	-0.021558011
197	0xbd6024ac	-0.054722473
198	0x3d023e94	0.03179796
199	0x3d105a0b	0.03524212
200	0xbd7f03fd	-0.062259663
201	0x3b7a32c4	0.0038177231
202	0x3d491771	0.04909462
203	0xbd60edf8	-0.054914445
204	0xbd5a4626	-0.053289555
205	0xbd3c6226	-0.04599204
206	0x3c3f85ac	0.011689585
207	0x3cdccbfe	0.02695274
208	0xbda4676e	-0.0802754
209	0xbd661c26	-0.05617919
210	0xbc981adb	-0.018567493
211	0xbc560f65	-0.013065194
212	0xbd7d1f93	-0.06179769
213	0xbd320c52	-0.04346878
214	0x3ac67af9	0.001514285
215	0xbbf8b93a	-0.00759044
216	0xbd295528	-0.041340977
217	0xbccbc461	-0.024873914
218	0xbd5ee3f9	-0.05441663
219	0xbab4a140	-0.0013780966
220	0x3d1b2280	0.0378747
221	0x3c097feb	0.008392314
222	0x3cf8e4da	0.030382562
223	0x3d018ced	0.031628538
224	0xbc7e26d0	-0.015512183
225	0xbcdfd74f	-0.027324347
226	0xbcf4b9ff	-0.029873846
227	0x3cd4c2e4	0.025971837
228	0xbd506d2c	-0.050885364
229	0xbd5d6f7f	-0.05406141
230	0xbd8b7dce	-0.06811105
231	0x3b078ebc	0.0020684442
232	0x3a3cc12b	0.0007200415
233	0xbc180c37	-0.009280256
234	0xbc93bb62	-0.018033687
235	0x3d6539ec	0.05596344
236	0xbd80db0d	-0.062917806
237	0xbd35832e	-0.044314556
238	0x3c57e746	0.0131776985
239	0x3c2a65d6	0.010400256
240	0x3bc3414b	0.0059587113
241	0x3c369be2	0.011145564
242	0xbcd3d19d	-0.025856787
243	0xbce48ad6	-0.027898233
244	0xbc3c9404	-0.011509899
245	0x3c3ab842	0.01139647
246	0xbd280d99	-0.041028593
247	0xbd63206b	-0.055450838
248	0xbbac4120	-0.005256787
249	0x3d0eefe7	0.034896757
250	0xbbdefd0a	-0.006805067
251	0xbd024888	-0.031807452
252	0xbc2caf88	-0.010539897
253	0xbc6a933a	-0.014317328
254	0xbc8d41a3	-0.017243212
255	0x3ca4c278	0.020112261

linear2.bias f4 [3]
0	0x3d130e75	0.03590246
1	0xbd1f9639	-0.038961623
2	0xbd4ccb77	-0.049998727
